mnist-classifier.pt (torch_old, 16388 bytes, 8 tensors)

conv1.weight f4 [2, 1, 5, 5]
-0.30132553 0.71436983 0.3746148 0.00862782 0.014238177 0.24231009 0.61355054 -0.40646392
-0.33647087 -0.22200878 0.39547932 0.5954846 -0.23793174 -0.28733134 -0.04177076 0.073209554
0.36691797 0.47081527 0.008400991 -0.35655117 -0.09701871 0.16831134 0.48812848 0.16893035
0.12585633 -0.03358485 -0.15511027 0.12560734 -0.21284069 0.2465747 0.20741798 -0.05337993
-0.419581 -0.29679364 -0.24493253 0.11523848 -0.17110951 -0.56015825 -0.41273203 -0.2511339
0.35313395 0.36782092 0.29785544 0.26712793 0.11247515 -0.12350862 0.40104333 0.78234017
0.42782864 0.3886205
00000000: 5747 9abe f1e0 363f 83cd bf3e b35b 0d3c
00000010: 3e47 693c 2320 783e a611 1d3f 0a1c d0be
00000020: e945 acbe 4556 63be 447c ca3e ae71 183f
00000030: 61a4 73be 181d 93be d117 2bbd e4ee 953d
00000040: acdc bb3e b30e f13e 4fa4 093c e08d b6be
00000050: bfb1 c6bd cf59 2c3e faeb f93e 14fc 2c3e
00000060: 7be0 003e 4590 09bd 3ad5 1ebe 369f 003e
00000070: e9f2 59be 147e 7c3e 6165 543e eaa4 5abd
00000080: 52d3 d6be 56f5 97be 98cf 7abe 2702 ec3d
00000090: 5537 2fbe 8866 0fbf 9d51 d3be 9f94 80be
000000a0: f9cd b43e 0653 bc3e 8280 983e fec4 883e
000000b0: 5f59 e63d 16f2 fcbd 8d55 cd3e 7247 483f
000000c0: 5b0c db3e 44f9 c63e

conv1.bias f4 [2]
0.54885066 0.2631896
00000000: 7a81 0c3f cac0 863e

conv2.weight f4 [6, 2, 5, 5]
-0.08303256 -0.16669643 -0.14678638 0.040267274 0.3451846 0.07537905 0.06066837 0.23415622
0.22105783 -0.1784308 0.16539106 -0.09831554 -0.022850525 0.027751856 -0.0150309475 0.19408159
0.07509383 -0.24096988 -0.4679035 -0.47899976 -0.38648066 -0.17065783 -0.36403427 -0.5106165
-0.2801951 -0.058793228 -0.17445433 -0.021159602 0.28962126 0.661671 0.114235364 0.17090634
0.42816767 0.37117907 0.037422072 0.017397167 -0.06226414 0.092356555 0.08430479 -0.3517961
-0.29335678 0.19047852 0.15658222 0.18372965 0.041977488 -0.3044286 -0.052134838 0.12762639
0.026793074 0.040708687 -0.29937425 0.12474414 0.35316598 0.16135153 -0.15012568 -0.33153096
0.050271884 0.33875299 0.061805956 -0.34434667 -0.21857542 0.5466766 0.2918282 -0.33092526
-0.30775994 0.45889828 0.37233266 -0.3195536 -0.2434254 0.036051318 0.14157626 -0.3141391
-0.20183139 -0.28326398 -0.13793723 -0.09609594 -0.0738269 -0.22431923 -0.20329133 -0.4102501
-0.06962376 -0.22575408 -0.37495795 -0.26054484 -0.16596414 -0.25110647 -0.26877436 -0.07191546
-0.044988025 -0.06976158 -0.405975 -0.22929816 0.2354615 0.35555252 0.26777294 -0.15593192
0.015409759 0.40264052 0.19497155 -0.0005334026 0.29495144 -0.073102266 -0.3463602 -0.39975464
-0.10173814 0.16811718 -0.24467953 -0.15457523 -0.16000846 -0.14667347 0.24210796 -0.10826724
-0.01758089 0.03305551 -0.1937729 0.2241465 0.059627857 0.01384196 0.25121185 0.21850264
0.42888078 0.24170578 0.52292025 0.5771637 -0.03727531 -0.18008152 -0.38764355 -0.20289136
-0.15508425 0.08797418 -0.03727555 -0.36570656 -0.27338216 -0.113578565 0.22012746 -0.2128364
-0.34862143 -0.294143 -0.09327253 0.25467283 -0.33245516 -0.2443608 -0.28948483 0.119558215
0.22991925 0.123365246 -0.037788343 -0.11338926 0.3316511 0.04035737 -0.16846251 -0.09597806
-0.18487914 -0.07514513 0.16328172 -0.17097402 -0.12899777 -0.19841577 -0.3437219 -0.25550368
-0.098728366 -0.20531954 0.109829456 0.05318751 -0.069996506 -0.024551256 0.02230696 0.21651816
0.15728998 -0.02276064 0.0056433 -0.2236208 -0.14008056 0.061452236 0.07405719 0.08779329
0.020254934 -0.3415966 -0.41913405 -0.38529179 0.43588907 0.34477475 0.042462032 -0.05418377
-0.39523888 0.012895518 0.15873487 0.3451451 0.2965461 0.09886855 -0.17755982 -0.14996195
-0.02216757 0.3676171 0.21985993 -0.06052318 -0.07039395 -0.24979225 -0.33409184 -0.12109511
0.1205859 0.31641817 0.100191414 -0.23520477 -0.55938476 -0.24517672 -0.06506725 0.32607573
0.027335761 -0.23333862 -0.11966112 -0.093495704 0.098908626 0.4800239 -0.032023758 -0.078380935
-0.29766086 0.15132137 0.5498288 -0.12753184 -0.09031668 -0.07207386 0.15417467 0.18146753
-0.20430866 -0.0961466 0.024329785 0.068101116 -0.26265898 -0.57418185 -0.17375423 -0.2854499
0.19383866 0.15609525 -0.26396683 0.07549016 -0.51890206 -0.18860993 0.15494314 0.13359463
0.35394016 -0.045153927 -0.3236623 -0.046911303 0.116236754 0.060861386 -0.13395613 -0.10464112
0.10537426 0.056934163 -0.308445 -0.26040784 -0.3952176 -0.26668218 0.21548554 -0.20343508
00000000: fa0c aabd 78b2 2abe 2b4f 16be 4cef 243d
00000010: 09bc b03e 5560 9a3d 667f 783d a6c6 6f3e
00000020: fc5c 623e 90b6 36be 465c 293e a859 c9bd
00000030: 0631 bbbc dc57 e33c 5d44 76bc 53bd 463e
00000040: cbca 993d cfc0 76be 0c91 efbe 753f f5be
00000050: cbe0 c5be edc0 2ebe b362 babe c3b7 02bf
00000060: bb75 8fbe 2bd1 70bd 28a4 32be e756 adbc
00000070: 3d49 943e 4563 293f 3bf4 e93d 1202 2f3e
00000080: cb38 db3e 2f0b be3e e347 193d 8184 8e3c
00000090: af08 7fbd 6f25 bd3d fda7 ac3d 9e1e b4be
000000a0: dc32 96be cd0c 433e 1757 203e a023 3c3e
000000b0: 96f0 2b3d 11de 9bbe 578b 55bd 7eb0 023e
000000c0: 267d db3c 27be 263d 9547 99be db79 ff3d
000000d0: 2cd2 b43e 5639 253e 8cba 19be 6dbe a9be
000000e0: e4e9 4d3d 0871 ad3e 3e28 7d3d 354e b0be
000000f0: 3cd2 5fbe fff2 0b3f 816a 953e 096f a9be
00000100: b692 9dbe b7f4 ea3e 63a2 be3e 889c a3be
00000110: 8244 79be 8caa 133d 5ef9 103e d7d6 a0be
00000120: e3ac 4ebe fa07 91be 6b3f 0dbe f3cd c4bd
00000130: 8f32 97bd f1b3 65be 9a2b 50be 4d0c d2be
00000140: e796 8ebd 142c 67be 7dfa bfbe 2266 85be
00000150: 81f2 29be 0791 80be cb9c 89be 6a48 93bd
00000160: 5d45 38bd 29df 8ebd f5db cfbe 23cd 6abe
00000170: d21c 713e fb0a b63e 8919 893e 9eac 1fbe
00000180: 3779 7c3c e626 ce3e 9fa6 473e 0bd4 0bba
00000190: e003 973e a4b6 95bd 2056 b1be a4ac ccbe
000001a0: 165c d0bd e926 2c3e 458d 7abe f848 1ebe
000001b0: 42d9 23be 9231 16be 26eb 773e 37bb ddbd
000001c0: cc05 90bc 3765 073d 676c 46be a986 653e
000001d0: 573c 743d 63c9 623c d79e 803e 28bf 5f3e
000001e0: 4396 db3e b881 773e 1ade 053f 00c1 133f
000001f0: ffad 18bd 4a67 38be 3779 c6be c1c2 4fbe
00000200: 68ce 1ebe cf2b b43d 3fae 18bd e43d bbbe
00000210: bff8 8bbe e19b e8bd 1869 613e c9f1 59be
00000220: 827e b2be e999 96be ab05 bfbd 7a64 823e
00000230: 9037 aabe b839 7abe 5b37 94be f0da f43d
00000240: f46f 6b3e eba6 fc3d f3c7 1abd a138 e8bd
00000250: 2cce a93e c54d 253d 7081 2cbe 2590 c4bd
00000260: f550 3dbe b1e5 99bd 5333 273e d013 2fbe
00000270: fe17 04be 812d 4bbe 51fc afbe 61d1 82be
00000280: 1932 cabd 493f 52be 44ee e03d 26db 593d
00000290: 545a 8fbd b71f c9bc 16bd b63c f0b6 5d3e
000002a0: a010 213e 8674 babc 6eeb b83b dafc 64be
000002b0: 4771 0fbe 57b5 7b3d 4cab 973d f8cc b33d
000002c0: aded a53c c0e5 aebe bd98 d6be f744 c5be
000002d0: da2c df3e 5186 b03e abec 2d3d cdef 5dbd
000002e0: c05c cabe b947 533c 658b 223e dcb6 b03e
000002f0: e4d4 973e 987b ca3d 3ed2 35be a08f 19be
00000300: c498 b5bc 4f38 bc3e f622 613e 27e7 77bd
00000310: b42a 90bd 8ac9 7fbe 160e abbe b700 f8bd
00000320: bef5 f63d 9001 a23e 2831 cd3d 85d9 70be
00000330: d733 0fbf 9b0f 7bbe fa41 85bd 66f3 a63e
00000340: 3fef df3c 52f0 6ebe e410 f5bd ad7a bfbd
00000350: 9b90 ca3d b1c5 f53e 582b 03bd 2f86 a0bd
00000360: 0167 98be fdf3 1a3e 95c1 0c3f b597 02be
00000370: f4f7 b8bd 769b 93bd f7df 1d3e a0d2 393e
00000380: 4a36 51be 82e8 c4bd 424f c73c 9978 8b3d
00000390: 3d7b 86be 95fd 12bf a1ec 31be 7d26 92be
000003a0: a47d 463e 6fd7 1f3e a926 87be 969a 9a3d
000003b0: c4d6 04bf f622 41be 6aa9 1e3e 08cd 083e
000003c0: a537 b53e 53f3 38bd 11b7 a5be 1126 40bd
000003d0: 890d ee3d ca49 793d cc2b 09be 154e d6bd
000003e0: 76ce d73d cc33 693d 81ec 9dbe 2d54 85be
000003f0: f659 cabe 918a 88be 3ea8 5c3e 4951 50be

conv2.bias f4 [6]
-0.19782488 0.17384894 -0.005176172 -0.16483551 -0.19703808 -0.29964986
00000000: 9b92 4abe 7505 323e e19c a9bb a4ca 28be
00000010: 5ac4 49be b56b 99be

fc1.weight f4 [32, 96]
0.19028509 -0.19124976 -0.16397712 -0.18433504 -0.09153574 -0.113166414 0.13481735 0.005459091
0.093058296 0.14973398 0.09929353 -0.072743066 -0.052162614 -0.010451319 0.0070793866 0.045163054
-0.15786634 -0.14947413 0.04354856 0.10964764 -0.068598844 0.012553846 0.1181788 -0.04053003
0.0581912 -0.019566486 -0.024347099 0.010700967 0.041370504 -0.012417688 0.14146003 -0.0758519
-0.10276989 -0.10153647 0.079251565 0.17548476 -0.12642993 -0.16029166 -0.13183248 0.16051626
-0.19289984 -0.087901846 0.039728362 0.020052698 0.015398705 0.083828956 0.06696376 0.0026418807
-0.08181944 0.011476661 -0.21186973 0.009821911 -0.10178181 0.05546356 0.08264687 0.07956826
-0.116116084 -0.20496373 0.0048644966 0.059775412 0.087433085 -0.02480264 -0.07381806 -0.05753342
0.04035168 0.08948254 0.25474876 -0.0013481195 -0.11802851 0.0441032 0.021709284 -0.0678051
-0.14072827 0.07064167 0.076268844 0.048389256 -0.043508343 -0.06676413 0.09675403 0.031722818
-0.020561166 0.060991824 0.0886263 -0.10937663 0.025699498 0.07015229 0.16733214 -0.08489007
0.014981426 -0.033191226 -0.13737738 -0.06600969 -0.15257649 -0.09241706 0.03829604 -0.007774592
0.12731634 0.2866522 0.16739258 -0.076718986 -0.18235576 0.027506107 -0.0712092 -0.0047213007
-0.114300765 0.17299867 0.02768377 -0.16071235 0.068035915 -0.009576463 -0.07728713 -0.020365257
0.03749764 -0.08502518 -0.1624856 -0.19714627 0.13979334 0.12723255 0.07122525 0.20150611
0.15838699 0.08793912 -0.028767113 0.0831095 -0.055056315 -0.06600009 0.22919255 0.058433212
-0.11849316 -0.08005786 -0.15392491 -0.0920565 0.16837205 0.08779282 0.038181067 0.059048053
0.05873424 -0.037779506 -0.029306995 -0.063709885 -0.026721822 0.065564886 -0.01393797 -0.008845
-0.08205337 -0.054110184 0.118303485 0.38260376 -0.12722163 -0.09079311 -0.012404276 0.02744962
-0.10555016 -0.21703018 0.010473672 -0.067444555 -0.15316176 -0.106025115 -0.19724195 -0.054061405
-0.13257326 -0.19183761 -0.031622652 0.09115085 -0.0781629 -0.026919244 0.022573015 0.10158225
0.1088946 -0.23392656 -0.047266882 -0.13388982 0.15863769 -0.054990973 -0.08299793 -0.14568998
-0.077813774 -0.26511848 -0.061553314 0.07126361 -0.044486847 -0.013371869 -0.035255674 0.07979744
0.18655603 0.07082679 -0.023542685 0.012833844 -0.10761173 -0.048529048 0.0049954634 0.36056486
0.32586446 0.2278138 0.1155849 0.017477885 0.041003916 -0.043893304 0.20532522 0.10202534
0.045701567 0.069000795 0.22612923 0.03132047 -0.05534453 -0.006403731 0.09043276 -0.057592414
-0.091949314 -0.14149733 -0.06955246 0.028922267 -0.08424135 -0.15987802 -0.005317895 0.19148329
-0.24072132 -0.116177976 -0.015627744 -0.12898599 -0.029131826 -0.16753949 -0.23322971 0.10723384
0.21952602 0.082943566 -0.05616491 -0.0911256 0.09859178 0.014340932 -0.13743626 -0.07043222
0.27655604 -0.044480022 -0.32859847 0.02156335 0.18806261 0.07647288 0.0044120695 0.019816408
0.013616092 0.05236434 -0.020877108 -0.005377827 0.06034682 0.20902526 0.16188906 0.08561144
0.028321614 0.10022378 0.06523952 0.24964173 0.071847506 -0.010994175 0.0017585976 -0.060281694
00000000: 18da 423e fad6 43be 9ee9 27be 53c2 3cbe
00000010: 1777 bbbd cbc3 e7bd 8f0d 0a3e 2de2 b23b
00000020: 5995 be3d dd53 193e 685a cb3d 51fa 94bd
00000030: 77a8 55bd 023c 2bbc 33fa e73b e5fc 383d
00000040: b7a7 21be bf0f 19be fa5f 323d f18e e03d
00000050: 8d7d 8cbd a6ae 4d3c ba07 f23d d102 26bd
00000060: e559 6e3d e549 a0bc 9173 c7bc 1c53 2f3c
00000070: 1e74 293d 8f73 4bbc e6da 103e 3e58 9bbd
00000080: 0579 d2bd 5af2 cfbd a54e a23d 47b2 333e
00000090: d976 01be 7f23 24be 18ff 06be 605e 243e
000000a0: 8987 45be e205 b4bd 35ba 223d 8e45 a43c
000000b0: da4a 7c3c 84ae ab3d 4c24 893d 6723 2d3b
000000c0: f390 a7bd 9b08 3c3c 61f4 58be 15ec 203c
000000d0: fb72 d0bd c22d 633d c342 a93d aff4 a23d
000000e0: 45ce edbd 03e2 51be 5b66 9f3b 10d7 743d
000000f0: 1e10 b33d e82e cbbc ec2d 97bd 2aa8 6bbd
00000100: ce47 253d 9f42 b73d 6e6e 823e 62b3 b0ba
00000110: eeb8 f1bd 8fa5 343d abd7 b13c 66dd 8abd
00000120: 121b 10be 94ac 903d d732 9c3d d033 463d
00000130: ce35 32bd a2bb 88bd fa26 c63d c9ef 013d
00000140: e46f a8bc 90d2 793d b581 b53d db00 e0bd
00000150: c187 d23c 01ac 8f3d 1e59 2b3e d8da adbd
00000160: a874 753c 86f3 07bd a8ac 0cbe 1730 87bd
00000170: 033d 1cbe 2845 bdbd 4fdc 1c3d 01c2 febb
00000180: 375f 023e 14c4 923e f668 2b3e d81e 9dbd
00000190: 78bb 3abe 7d54 e13c 21d6 91bd 24b5 9abb
000001a0: 8516 eabd 9026 313e 13c9 e23c c791 24be
000001b0: 6a56 8b3d 99e6 1cbc b748 9ebd 0ad5 a6bc
000001c0: 2097 193d ae21 aebd a062 26be b6e0 49be
000001d0: fc25 0f3e 4049 023e 8bde 913d 9e57 4e3e
000001e0: 3330 223e 6d19 b43d 02a9 ebbc 5035 aa3d
000001f0: bb82 61bd 0e2b 87bd 74b1 6a3e aa57 6f3d
00000200: 8bac f2bd 60f5 a3bd 7e9e 1dbe 1e88 bcbd
00000210: b969 2c3e b9cc b33d c063 1c3d 5fdc 713d
00000220: 5093 703d afbe 1abd 3915 f0bc 547a 82bd
00000230: b9e7 dabc e246 863d 155c 64bc 9eea 10bc
00000240: 990b a8bd a4a2 5dbd 1949 f23d a4e4 c33e
00000250: 6346 02be bdf1 b9bd 4e3b 4bbc 07de e03c
00000260: af2a d8bd 293d 5ebe c499 2b3c 5f20 8abd
00000270: 70d6 1cbe b223 d9bd cbf9 49be 7e6f 5dbd
00000280: 49c1 07be 1471 44be c186 01bd 4cad ba3d
00000290: df13 a0bd bf85 dcbc 0beb b83c 5b0a d03d
000002a0: 2204 df3d 728a 6fbe eb9a 41bd 6a1a 09be
000002b0: eb71 223e 373e 61bd d2fa a9bd c12f 15be
000002c0: d45c 9fbd 9cbd 87be 541f 7cbd a8f2 913d
000002d0: d737 36bd af15 5bbc 4168 10bd d76c a33d
000002e0: 8b08 3f3e a30d 913d 97dc c0bc 0b45 523c
000002f0: 8a63 dcbd 65c6 46bd fcb0 a33b f59b b83e
00000300: b5d7 a63e 0548 693e c7b7 ec3d c82d 8f3c
00000310: b9f3 273d 77c9 33bd c640 523e a9f2 d03d
00000320: 9131 3b3d 4a50 8d3d 6c8e 673e e549 003d
00000330: f2b0 62bd 64d6 d1bb d034 b93d 06e6 6bbd
00000340: ec4f bcbd ade4 10be 8571 8ebd 64ee ec3c
00000350: bb86 acbd 10b7 23be bd41 aebb 3214 443e
00000360: a67f 76be b8ee edbd c105 80bc e714 04be
00000370: dea5 eebc 798f 2bbe c5d3 6ebe 6a9d db3d
00000380: 6ecb 603e 51de a93d 2d0d 66bd 0fa0 babd
00000390: 7dea c93d 3af6 6a3c 17bc 0cbe c53e 90bd
000003a0: c198 8d3e af30 36bd 0f3e a8be 9fa5 b03c
000003b0: 7c93 403e d09d 9c3d 1f93 903b 0556 a23c
000003c0: 0716 5f3c fd7b 563d 7806 abbc 7c38 b0bb
000003d0: 3a2e 773d b80a 563e 3fc6 253e 0d55 af3d
000003e0: bb02 e83c 2042 cd3d 4c9c 853d 15a2 7f3e
000003f0: c924 933d ea20 34bc be80 e63a f0e9 76bd

fc1.bias f4 [32]
0.022143094 0.04100838 -0.06705934 0.059558596 0.04493261 0.06510154 0.107502535 0.057436563
0.06093288 0.003968135 0.032390643 -0.022755217 0.05389565 -0.06458504 0.090770744 -0.007559619
0.038948655 0.087581754 -0.07366462 -0.10650132 0.08079612 -0.044210106 -0.0597378 -0.0122080045
0.09627207 0.06274017 -0.06288698 0.12280687 -0.027182015 0.026823198 -0.06408024 0.066138424
00000000: 6f65 b53c 67f8 273d 6856 89bd b7f3 733d
00000010: 420b 383d f553 853d 4a2a dc3d 9a42 6b3d
00000020: c194 793d 2107 823b 0dac 043d 2669 babc
00000030: afc1 5c3d 2945 84bd 03e6 b93d aeb6 f7bb
00000040: a088 1f3d 105e b33d 7add 96bd 5d1d dabd
00000050: 7078 a53d a815 35bd a0af 74bd 1504 48bc
00000060: 4b2a c53d eb7d 803d e4ca 80bd 2b82 fb3d
00000070: d1ac debc 53bc db3c 803c 83bd 9573 873d

fc2.weight f4 [10, 32]
-0.035746556 0.16028182 -0.22705533 0.3081068 0.014948667 -0.11486448 0.0953405 -0.1927589
-0.13524108 -0.0014181414 -0.120179825 -0.13239978 -0.34110782 0.03858895 0.31239662 -0.34293887
0.020528318 -0.11990964 -0.23372626 -0.11768999 0.06859926 -0.045406073 0.08071106 -0.5480329
-0.0798291 0.11984763 -0.22590888 -0.070175946 0.003927939 0.5672756 -0.021209752 0.29350004
0.3487594 0.009496969 -0.51867455 -0.0602584 -0.22095339 -0.1296235 0.35980904 0.32734329
0.6880867 -0.03345031 -0.13255304 -0.049615275 0.43770316 0.09881687 -0.3131274 -0.022480857
-0.17477714 -0.01677786 -0.19108622 -0.20887429 -0.28099644 0.33278564 0.291462 -0.2766428
0.13657713 0.15442045 0.25994936 0.33263648 0.32566407 -0.3140172 -0.2722477 0.064496115
-0.20240507 0.1619906 0.18734428 0.2454381 0.36391953 0.11742721 0.28289858 0.26845288
-0.13536204 0.10207474 0.10298318 -0.25172544 0.1891192 0.12991191 0.25668055 -0.32724503
0.5048501 -0.06644236 0.23029481 0.17090562 -0.34396055 0.1312045 -0.40229657 -0.17685512
0.13349438 -0.03293469 -0.16861722 0.31173038 -0.14186792 -0.0825879 0.21316028 -0.24963911
0.4412864 -0.0732036 0.43464956 0.10941275 -0.20435797 0.031125583 0.11767108 -0.221491
-0.11015941 -0.15164511 -0.13028117 0.4025971 0.4373272 -0.09921556 -0.22838296 -0.17468299
-0.049990404 0.42857033 0.27238017 0.25690654 0.18968792 -0.010318434 -0.15469824 -0.029534992
-0.13599883 0.015317018 -0.48432246 -0.13999394 0.16173863 -0.07048817 -0.3134837 -0.3740648
0.103649735 -0.07210724 -0.34721544 0.15626001 0.35853627 0.26793838 -0.2951294 0.3425351
-0.3316286 0.13096173 0.32323515 0.10750041 -0.4036225 -0.12377984 -0.2138754 0.46895567
0.08163609 -0.28450605 -0.11030425 -0.22543423 -0.05912509 0.20569074 0.19709142 0.24261901
-0.030209797 -0.07297562 0.5168255 0.087701455 0.25757962 0.22651912 0.124315456 -0.4266874
-0.07348536 -0.3478225 0.22652198 -0.203323 -0.009104239 -0.050074622 -0.42251867 -0.07267117
-0.05218606 0.14305827 0.070399575 0.23110388 -0.0013944049 0.03517441 -0.25954476 -0.2965442
0.024428455 0.30957267 -0.31409928 -0.016025627 0.1826071 0.026109593 -0.20216568 0.50451547
-0.30113056 0.26075462 -0.37159967 -0.20894632 0.18365774 -0.0073572276 0.63495356 0.44861537
-0.074139565 -0.18490446 0.19906484 -0.37221622 0.438508 -0.30136627 -0.16079694 -0.21654204
-0.220354 -0.16526778 -0.07161443 -0.31556195 -0.11633615 0.034140617 -0.37634712 -0.39051455
-0.10834075 -0.33097643 -0.13032441 -0.1333558 0.4572606 -0.27088788 -0.14277054 -0.05473738
-0.43879122 -0.013504027 0.03326619 0.4193199 -0.17016798 0.3442533 -0.27134475 0.4198293
-0.08860002 0.3742556 -0.10386971 -0.21048689 -0.2163341 0.4743201 -0.11639488 0.2830075
0.40805095 0.028603097 -0.06556824 0.017793778 -0.0754754 -0.013244504 0.34907117 0.31834465
-0.09555538 0.40496647 -0.04520469 0.5481818 -0.14310478 -0.032590337 0.16094117 -0.29689193
-0.17337638 0.01094867 0.2321115 -0.20514056 0.2149108 -0.41833383 0.042501245 -0.31419712
00000000: fb6a 12bd eb20 243e 3181 68be 2dc0 9d3e
00000010: 41eb 743c 123e ebbd e141 c33d 9762 45be
00000020: a37c 0abe eee0 b9ba d720 f6bd cf93 07be
00000030: afa5 aebe 720f 1e3d 73f2 9f3e af95 afbe
00000040: 012b a83c 2f93 f5bd f055 6fbe 7307 f1bd
00000050: c57d 8c3d b8fb 39bd d74b a53d e24b 0cbf
00000060: 707d a3bd ad72 f53d a854 67be 68b8 8fbd
00000070: f1b5 803b f938 113f 13c0 adbc a345 963e
00000080: 9890 b23e 2d99 1b3c dbc7 04bf 83d1 76bd
00000090: 9b41 62be 06bc 04be e438 b83e 8a99 a73e
000000a0: 7326 303f 3103 09bd fcbb 07be 6339 4bbd
000000b0: a11a e03e 8060 ca3d 3c52 a0be c629 b8bc
000000c0: c7f8 32be b971 89bc 1bac 43be 24e3 55be
000000d0: c4de 8fbe e162 aa3e 823a 953e 20a4 8dbe
000000e0: e0da 0b3e 6520 1e3e 1518 853e 544f aa3e
000000f0: 71bd a63e ddc6 a0be 0d64 8bbe 8a16 843d
00000100: 4643 4fbe dde0 253e 2ed7 3f3e 2054 7b3e
00000110: a953 ba3e ad7d f03d 15d8 903e a872 893e
00000120: 599c 0abe 900c d13d d8e8 d23d 28e2 80be
00000130: 77a8 413e a107 053e a26b 833e a98c a7be
00000140: db3d 013f ef12 88bd 67d2 6b3e e201 2f3e
00000150: 991b b0be 795a 063e d1f9 cdbe 8219 35be
00000160: c0b2 083e 87e6 06bd fea9 2cbe 209b 9f3e
00000170: d345 11be d823 a9bd b046 5a3e 65a1 7fbe
00000180: 4bf0 e13e c5eb 95bd 638a de3e cb13 e03d
00000190: 3743 51be 14fb fe3c 89fd f03d 89ce 62be
000001a0: 429b e1bd db48 1bbe 6d68 05be 3521 ce3e
000001b0: 5ae9 df3e 8731 cbbd 39dd 69be 19e0 32be
000001c0: bdc2 4cbd 926d db3e 6a75 8b3e 4189 833e
000001d0: 8d3d 423e a60e 29bc 3769 1ebe 5ef3 f1bc
000001e0: 4743 0bbe 3bf4 7a3c 1df9 f7be 925a 0fbe
000001f0: d09e 253e 1a5c 90bd ef80 a0be 6c85 bfbe
00000200: 5046 d43d f6ac 93bd 39c6 b1be a002 203e
00000210: 1192 b73e 382f 893e 331b 97be c360 af3e
00000220: 39cb a9be d51a 063e 147f a53e 2d29 dc3d
00000230: 9ca7 cebe 4980 fdbd 2702 5bbe f51a f03e
00000240: d330 a73d c7aa 91be 32e7 e1bd 3bd8 66be
00000250: 262d 72bd 98a0 523e 55d2 493e 1e71 783e
00000260: 897a f7bc 3e74 95bd ad4e 043f d29c b33d
00000270: 7ae1 833e a1f4 673e 1a99 fe3d c576 dabe
00000280: 7e7f 96bd ca15 b2be 61f5 673e e833 50be
00000290: f229 15bc 0c1b 4dbd 5e54 d8be 9fd4 94bd
000002a0: 0dc1 55bd de7d 123e a72d 903d 7fa6 6c3e
000002b0: 77c4 b6ba 0b13 103d 0de3 84be a4d4 97be
000002c0: 2f1e c83c 4f80 9e3e 9fd1 a0be 2d48 83bc
000002d0: 5bfd 3a3e c9e3 d53c 8504 4fbe ed27 013f
000002e0: c92d 9abe a181 853e 5042 bebe 06f6 55be
000002f0: c610 3c3e e614 f1bb 518c 223f eab0 e53e
00000300: 7cd6 97bd 9857 3dbe a7d7 4b3e 2093 bebe
00000310: 1f84 e03e ae4c 9abe f4a7 24be 32bd 5dbe
00000320: 7ba4 61be f53b 29be 96aa 92bd 5691 a1be
00000330: a641 eebd 08d7 0b3d 92b0 c0be 86f1 c7be
00000340: c1e1 ddbd be75 a9be c373 05be 6c8e 08be
00000350: 101e ea3e d1b1 8abe 7132 12be 4e34 60bd
00000360: 3ea9 e0be ff3f 5dbc 2142 083d 19b1 d63e
00000370: 8440 2ebe f841 b03e b3ed 8abe def3 d63e
00000380: ed73 b5bd 6e9e bf3e a4b9 d4bd e089 57be
00000390: b086 5dbe 16da f23e 7060 eebd 5ce6 903e
000003a0: 0eec d03e 0b51 ea3c a448 86bd 42c4 913c
000003b0: d992 9abd 7aff 58bc 75b9 b23e 12fe a23e
000003c0: 8ab2 c3bd c457 cf3e 8e28 39bd a455 0c3f
000003d0: 0f8a 12be 727d 05bd c3cd 243e 3802 98be
000003e0: 9489 31be 0d62 333c a3ae 6d3e 5e10 52be
000003f0: 9411 5c3e da2f d6be c915 2e3d 72de a0be

fc2.bias f4 [10]
-0.0055928244 0.15445971 -0.12122107 -0.017397417 -0.24016827 -0.049570486 -0.12443256 0.010900524
-0.01621418 0.08136227
00000000: 0344 b7bb b02a 1e3e c142 f8bd 0785 8ebc
00000010: acee 75be 6c0a 4bbd 7fd6 febd 1d98 323c
00000020: 9ad3 84bc 43a1 a63d
